…
, "test_loss_history": [{"__ndarray__": 0.11826220899820328, "dtype": "float32", "shape": []}], "train_acc_history": [{"__ndarray__": 0.932533323764801, "dtype": "float32", "shape": []}, {"__ndarray__": 0.9518833160400391, "dtype": "float32", "shape": []}, {"__ndarray__": 0.9625666737556458, "dtype": "float32", "shape": []}, {"__ndarray__": 0.9706833362579346, "dtype": "float32", "shape": []}, {"__ndarray__": 0.9758666753768921, "dtype": "float32", "shape": []}], "test_ann_history": [{"__ndarray__": 0.9648000001907349, "dtype": "float32", "shape": []}], "model_deep": "DeepMNISTNet(\n  (adapter): Linear(in_features=784, out_features=784, bias=True)\n  (layers): ModuleList(\n    (0-3): 4 x NoResidual(\n      (block): Sequential(\n        (0): LinAct(\n          (linear): Linear(in_features=784, out_features=784, bias=True)\n          (activation): Sigmoid()\n        )\n        (1): LinAct(\n          (linear): Linear(in_features=784, out_features=784, bias=True)\n          (activation): Sigmoid()\n        )\n      )\n    )\n  )\n  (classifier): Linear(in_features=784, out_features=10, bias=True)\n)", "test_output_deep": {"__ndarray__": [[… "dtype": "float32", "shape": [10, 10], "Corder": true}, "model_deep_residual": "DeepMNISTNet(\n  (adapter): Linear(in_features=784, out_features=784, bias=True)\n  (layers): ModuleList(\n    (0-3): 4 x Residual(\n      (block): Sequential(\n        (0): LinAct(\n          (linear): Linear(in_features=784, out_features=784, bias=True)\n          (activation): Sigmoid()\n        )\n        (1): LinAct(\n          (linear): Linear(in_features=784, out_features=784, bias=True)\n          (activation): Sigmoid()\n        )\n      )\n    )\n  )\n  (classifier): Linear(in_features=784, out_features=10, bias=True)\n)", "test_output_deep_residual": {"__ndarray__": [[… "dtype": "float32", "shape": [10, 10], "Corder": true}, "model_deep_residual_linnormact": "DeepMNISTNet(\n  (adapter): Linear(in_features=784, out_features=784, bias=True)\n  (layers): ModuleList(\n    (0-3): 4 x Residual(\n      (block): Sequential(\n        (0): LinNormAct(\n          (linear): Linear(in_features=784, out_features=784, bias=True)\n          (norm): BatchNorm1d(784, eps=1e-05, momentum=0.1, affine=True, track_running_stats=True)\n          (activation): Sigmoid()\n        )\n        (1): LinNormAct(\n          (linear): Linear(in_features=784, out_features=784, bias=True)\n          (norm): BatchNorm1d(784, eps=1e-05, momentum=0.1, affine=True, track_running_stats=True)\n          (activation): Sigmoid()\n        )\n      )\n    )\n  )\n  (classifier): Linear(in_features=784, out_features=10, bias=True)\n)", "test_output_deep_residual_linnormact": {"__ndarray__": [[… "dtype": "float32", "shape": [10, 10], "Corder": true}}